module {
  func.func @inference(%arg0: tensor<8xf32>, %arg1: tensor<8xf32>, %arg2: tensor<i64>, %arg3: tensor<1x3x32x32xf32>) -> tensor<1x8x30x30xf32> {
    %cst = stablehlo.constant dense_resource<torch_tensor_8_torch.float32_2> : tensor<8xf32>
    %cst_0 = stablehlo.constant dense_resource<torch_tensor_8_torch.float32_1> : tensor<8xf32>
    %cst_1 = stablehlo.constant dense_resource<torch_tensor_8_3_3_3_torch.float32> : tensor<8x3x3x3xf32>
    %cst_2 = stablehlo.constant dense_resource<torch_tensor_8_torch.float32> : tensor<8xf32>
    %cst_3 = stablehlo.constant dense<1.000000e+00> : tensor<8xf32>
    %cst_4 = arith.constant dense<1.000000e-05> : tensor<1xf64>
    %cst_5 = arith.constant dense<1> : tensor<1xi64>
    %0 = stablehlo.convolution(%arg3, %cst_1) dim_numbers = [b, f, 0, 1]x[o, i, 0, 1]->[b, f, 0, 1], window = {stride = [1, 1], pad = [[0, 0], [0, 0]], rhs_dilate = [1, 1]} {batch_group_count = 1 : i64, feature_group_count = 1 : i64} : (tensor<1x3x32x32xf32>, tensor<8x3x3x3xf32>) -> tensor<1x8x30x30xf32>
    %1 = stablehlo.reshape %cst_2 : (tensor<8xf32>) -> tensor<8x1x1xf32>
    %2 = stablehlo.broadcast_in_dim %1, dims = [1, 2, 3] : (tensor<8x1x1xf32>) -> tensor<1x8x30x30xf32>
    %3 = stablehlo.add %0, %2 : tensor<1x8x30x30xf32>
    %4 = stablehlo.convert %cst_4 : (tensor<1xf64>) -> tensor<1xf32>
    %5 = stablehlo.reshape %4 : (tensor<1xf32>) -> tensor<f32>
    %6 = stablehlo.broadcast_in_dim %5, dims = [] : (tensor<f32>) -> tensor<8xf32>
    %7 = stablehlo.add %arg1, %6 : tensor<8xf32>
    %8 = stablehlo.sqrt %7 : tensor<8xf32>
    %9 = stablehlo.divide %cst_3, %8 : tensor<8xf32>
    %10 = stablehlo.convert %cst_5 : (tensor<1xi64>) -> tensor<1xf32>
    %11 = stablehlo.reshape %10 : (tensor<1xf32>) -> tensor<f32>
    %12 = stablehlo.broadcast_in_dim %11, dims = [] : (tensor<f32>) -> tensor<8xf32>
    %13 = stablehlo.multiply %9, %12 : tensor<8xf32>
    %14 = stablehlo.reshape %arg0 : (tensor<8xf32>) -> tensor<8x1xf32>
    %15 = stablehlo.reshape %14 : (tensor<8x1xf32>) -> tensor<8x1x1xf32>
    %16 = stablehlo.reshape %13 : (tensor<8xf32>) -> tensor<8x1xf32>
    %17 = stablehlo.reshape %16 : (tensor<8x1xf32>) -> tensor<8x1x1xf32>
    %18 = stablehlo.broadcast_in_dim %15, dims = [1, 2, 3] : (tensor<8x1x1xf32>) -> tensor<1x8x30x30xf32>
    %19 = stablehlo.subtract %3, %18 : tensor<1x8x30x30xf32>
    %20 = stablehlo.broadcast_in_dim %17, dims = [1, 2, 3] : (tensor<8x1x1xf32>) -> tensor<1x8x30x30xf32>
    %21 = stablehlo.multiply %19, %20 : tensor<1x8x30x30xf32>
    %22 = stablehlo.reshape %cst_0 : (tensor<8xf32>) -> tensor<8x1xf32>
    %23 = stablehlo.reshape %22 : (tensor<8x1xf32>) -> tensor<8x1x1xf32>
    %24 = stablehlo.broadcast_in_dim %23, dims = [1, 2, 3] : (tensor<8x1x1xf32>) -> tensor<1x8x30x30xf32>
    %25 = stablehlo.multiply %21, %24 : tensor<1x8x30x30xf32>
    %26 = stablehlo.reshape %cst : (tensor<8xf32>) -> tensor<8x1xf32>
    %27 = stablehlo.reshape %26 : (tensor<8x1xf32>) -> tensor<8x1x1xf32>
    %28 = stablehlo.broadcast_in_dim %27, dims = [1, 2, 3] : (tensor<8x1x1xf32>) -> tensor<1x8x30x30xf32>
    %29 = stablehlo.add %25, %28 : tensor<1x8x30x30xf32>
    return %29 : tensor<1x8x30x30xf32>
  }
}

{-#
  dialect_resources: {
    builtin: {
      torch_tensor_8_torch.float32_2: "…",
      torch_tensor_8_torch.float32_1: "…",
      torch_tensor_8_3_3_3_torch.float32: "…",
      torch_tensor_8_torch.float32: "…"
    }
  }
#-}
